chatapp/data.pth (torch, 5279 bytes, 6 tensors)

l1.weight f4 [8, 54]
0.052958608 -0.013533374 0.13771468 -0.13489807 -0.2111879 0.63313967 -0.18925765 -0.111673765
0.006529658 -0.16135295 -0.19151361 0.6079539 0.08471472 0.66063535 -0.1181483 0.4615461
-0.102804475 0.63541865 -0.04013628 -0.2025945 -0.1415196 -0.29338408 -0.2485615 0.21465945
0.29877067 -0.1311309 -0.047708068 -0.008601825 -0.05608356 -0.13699263 0.24033609 0.61707395
0.10742587 0.07717971 -0.11213168 0.5198374 -0.063749254 0.066760756 -0.15978521 -0.11669769
0.10340702 -0.13555093 0.4122881 -0.068247005 0.47703695 -0.10148404 0.07661727 -0.10665073
-0.11802092 -0.049907725 0.459722 -0.063308895 -0.006093487 -0.21910053 0.37188292 0.14524026
-0.11591257 0.331569 0.09744175 -0.48993236 -0.16134116 -0.2504143 -0.27510762 -0.13147421
0.5077966 0.44507787 -0.27889544 0.27398813 -0.04257089 0.24899894 0.2943957 -0.52741885
-0.065223955 0.46113172 0.35612443 0.48154587 0.475352 0.4244673 0.17523386 0.46518925
-0.15025377 -0.35105568 -0.14309488 -0.11419423 -0.35221398 0.28542143 0.19661507 -0.23144275
-0.20543224 0.16221584 -0.31163236 -0.44073448 -0.15452765 -0.19358295 -0.23249242 -0.106619716
0.31666625 -0.12215122 0.03454189 -0.19937108 0.87156504 0.38067043 0.17917632 -0.24101901
0.2597362 -0.13181272 -0.23532405 0.05681296 0.3224564 0.38065073 0.6514559 -0.16104749
-0.026594501 -0.045960877 0.5219589 0.584151 0.61158097 0.43546307 -0.2680359 0.20763516
0.01228735 0.18190607 0.41852984 0.034304187 -0.14070119 -0.11934028 -0.3428598 -0.40812346
0.3503478 -0.4081903 -0.4081322 -0.33726907 0.30936813 -0.20796427 -0.2498729 0.17989163
0.004351776 0.056427274 -0.096716516 0.115969785 0.14719707 0.6580226 -0.025834499 -0.06311641
-0.0028316858 0.42343286 0.38638276 0.33362406 -0.17002428 -0.34695163 0.06359151 0.34442294
0.32511455 -0.023762582 0.75138265 0.3415066 -0.039087363 -0.40004408 -0.06508983 -0.15396951
0.2732727 0.3256276 0.55571216 0.09745184 -0.1908015 0.25623798 0.19485165 -0.46685627
-0.16679025 -0.22525883 -0.28349257 -0.16873103 0.29920486 0.2048825 -0.26252195 0.22337656
0.082733996 0.18829073 0.33635595 -0.436285 0.12756464 0.48458597 0.4866723 0.57182485
0.39966008 0.5532347 0.034865335 0.38711098 0.06088003 0.029195325 0.055232335 0.12984069
-0.2638654 0.07397642 0.3047464 -0.19251123 0.067539714 0.21047138 -0.060523134 -0.49472237
-0.038100004 -0.18915263 -0.38064957 0.18119621 -0.044381235 -0.0165153 -0.005288116 -0.14089978
1.1072729 0.43841282 0.26149604 -0.09910786 0.28140116 0.043417916 -0.018327152 0.16966435
0.54457676 0.89666426 -0.052955355 0.3366158 0.07545472 -0.5263821 0.2593739 -0.13400866
-0.2291832 0.021000924 0.32440475 -0.095255345 0.21044281 -0.1850115 0.61424017 -0.14202325
0.3349709 -0.5265295 0.11988385 0.53346556 0.499332 0.3175706 0.5132609 0.14095315
-0.25241956 0.30871937 0.18698572 0.76623756 0.39067024 0.47366387 -0.44671613 -0.26618573
0.39680293 -0.17524874 0.8674301 -0.08128156 0.4497651 -0.11149874 0.022560725 0.2215598
00000000: 20eb 583d 16bb 5dbc 1405 0d3e b822 0abe
00000010: a441 58be 7115 223f c2cc 41be 37b5 e4bd
00000020: bef6 d53b b539 25be 251c 44be dea2 1b3f
00000030: e97e ad3d 661f 293f bcf7 f1bd c54f ec3e
00000040: 278b d2bd ccaa 223f f165 24bd ef74 4fbe
00000050: 84ea 10be 7036 96be e886 7ebe b0cf 5b3e
00000060: 78f8 983e 2e47 06be 8969 43bd abee 0cbc
00000070: e0b7 65bd cc47 0cbe aa1a 763e 8ff8 1d3f
00000080: 1802 dc3d 6510 9e3d 4ba5 e5bd 1014 053f
00000090: f88e 82bd ddb9 883d bc9e 23be 33ff eebd
000000a0: 0fc7 d33d ddcd 0abe 6d17 d33e 16c5 8bbd
000000b0: 303e f43e ddd6 cfbd 84e9 9c3d b36b dabd
000000c0: f4b4 f1bd 0b6c 4cbd af60 eb3e 18a8 81bd
000000d0: e0ab c7bb e45b 60be 7067 be3e ddb9 143e
000000e0: 9263 edbd 69c3 a93e 8a8f c73d 6ad8 fabe
000000f0: 9e36 25be 4e36 80be e8da 8cbe 2da1 06be
00000100: f5fe 013f 3fe1 e33e 62cb 8ebe 2c48 8c3e
00000110: d05e 2ebd 94f9 7e3e 08bb 963e ec04 07bf
00000120: 2394 85bd 7519 ec3e f155 b63e 2e8d f63e
00000130: 5661 f33e c753 d93e 8170 333e 492d ee3e
00000140: 20dc 19be 92bd b3be 7787 12be aade e9bd
00000150: 6455 b4be c222 923e 7655 493e 54ff 6cbe
00000160: d45c 52be e91b 263e 478e 9fbe f3a7 e1be
00000170: 7f3c 1ebe 9c3a 46be 7e12 6ebe 705b dabd
00000180: 1422 a23e 6b2a fabd cc7b 0d3d ef27 4cbe
00000190: e31e 5f3f 3ce7 c23e ff79 373e b0cd 76be
000001a0: 25fc 843e eaf9 06be caf8 70be b5b4 683d
000001b0: 0119 a53e a7e4 c23e d0c5 263f a2e9 24be
000001c0: b6dc d9bc 7941 3cbd 199f 053f ec8a 153f
000001d0: 9290 1c3f 04f5 de3e 003c 89be 509e 543e
000001e0: e250 493c 9645 3a3e 8b49 d63e 8c82 0c3d
000001f0: f913 10be ad68 f4bd 528b afbe 8ff5 d0be
00000200: c960 b33e 52fe d0be b4f6 d0be 88ae acbe
00000210: 8065 9e3e 96f4 54be aede 7fbe 8335 383e
00000220: 5899 8e3b 4920 673d 4f13 c6bd 9181 ed3d
00000230: d4ba 163e 2b74 283f dfa2 d3bc 2d43 81bd
00000240: ce93 39bb 31cc d83e f6d3 c53e c6d0 aa3e
00000250: d81a 2ebe a5a3 b1be 443c 823d 3458 b03e
00000260: 6a75 a63e bfa9 c2bc 9d5a 403f f4d9 ae3e
00000270: 121a 20bd 94d2 ccbe d14d 85bd 2faa 1dbe
00000280: 66ea 8b3e a9b8 a63e 2743 0e3f d594 c73d
00000290: 7861 43be a031 833e 3187 473e c907 efbe
000002a0: 10cb 2abe 40aa 66be f025 91be d4c7 2cbe
000002b0: 6131 993e b8cc 513e 4769 86be d3bc 643e
000002c0: 7170 a93d 49cf 403e d936 ac3e bf60 dfbe
000002d0: 4ea0 023e a71b f83e 1d2d f93e 1d63 123f
000002e0: 3fa0 cc3e caa0 0d3f f4ce 0e3d 6933 c63e
000002f0: 575d 793d 092b ef3c 4d3b 623d f5f4 043e
00000300: 5e19 87be f380 973d b807 9c3e aa21 45be
00000310: 4352 8a3d cf85 573e 1be7 77bd 404c fdbe
00000320: c00e 1cbd 3ab1 41be 80e4 c2be 808b 393e
00000330: 19c9 35bd 184b 87bc ef47 adbb 0848 10be
00000340: 1ebb 8d3f a577 e03e cfe2 853e 10f9 cabd
00000350: d013 903e fcd6 313d d322 96bc 7ebc 2d3e
00000360: 6269 0b3f ca8b 653f b7e7 58bd e858 ac3e
00000370: 0188 9a3d fac0 06bf a8cc 843e 9139 09be
00000380: 00af 6abe 210a ac3c 6118 a63e 3c15 c3bd
00000390: 527e 573e a873 3dbe d83e 1d3f 8b6e 11be
000003a0: 4e81 ab3e a3ca 06bf aa85 f53d 3391 083f
000003b0: 72a8 ff3e 9d98 a23e 1165 033f 0656 103e
000003c0: 233d 81be 7710 9e3e 2f79 3f3e 2528 443f
000003d0: ee05 c83e 1284 f23e fab7 e4be 7f49 88be
000003e0: c129 cb3e 6874 33be e60f 5e3f f276 a6bd
000003f0: 9c47 e63e 7459 e4bd 45d1 b83c 92e0 623e

l1.bias f4 [8]
0.29348412 0.56944036 0.40817007 0.5224396 0.5264299 0.8953137 0.54728097 0.94886094
00000000: 8d43 963e d8c6 113f abfb d03e 9abe 053f
00000010: 1cc4 063f 4733 653f 9b1a 0c3f 8de8 723f

l2.weight f4 [8, 8]
-0.26581398 0.6332321 0.9498597 0.3998836 1.0499988 -0.49576268 1.1692158 -0.44048762
-0.030467749 -0.30502385 0.20415315 -0.16023153 -0.32931527 0.08627093 -0.06652072 -0.097290695
0.03536151 1.3404193 0.008474097 1.6434249 1.1249934 -0.6027379 -0.06541264 0.9456227
-0.88007665 0.23904848 -0.6584148 1.0058359 1.176394 1.237523 -0.8822598 0.23549223
0.9047636 0.9802945 1.2425679 0.6332079 -0.06684243 -0.19721779 1.6235933 1.4347479
0.5633018 -0.093330905 -0.6925135 0.20375058 -0.7080866 1.2328262 -0.12464524 0.98139304
0.1903893 -0.31478167 -0.13108593 0.15116647 -0.03295037 -0.08291963 -0.069714725 -0.28958648
0.10251562 -1.1559429 0.5916013 0.07720705 0.5827401 0.9890585 0.28005174 -1.0175998
00000000: c518 88be 801b 223f 012a 733f 8bbd cc3e
00000010: 5c66 863f 9bd4 fdbe dda8 953f 9887 e1be
00000020: 8097 f9bc 162c 9cbe 860d 513e bc13 24be
00000030: 039c a8be d0ae b03d 043c 88bd 5840 c7bd
00000040: 3bd7 103d dc92 ab3f f0d6 0a3c bf5b d23f
00000050: c9ff 8f3f 084d 1abf 10f7 85bd 5414 723f
00000060: b44c 61bf 20c9 743e df8d 28bf 3bbf 803f
00000070: 1494 963f 2767 9e3f c7db 61bf e024 713e
00000080: 969e 673f 95f4 7a3f 770c 9f3f ea19 223f
00000090: afe4 88bd 76f3 49be e8d1 cf3f d2a5 b73f
000000a0: 8c34 103f 4624 bfbd 9148 31bf fea3 503e
000000b0: 2a45 35bf 40cd 9d3f 0146 ffbd 933c 7b3f
000000c0: 6af5 423e 102b a1be 643b 06be 62cb 1a3e
000000d0: f8f6 06bd c4d1 a9bd 98c6 8ebd ae44 94be
000000e0: b6f3 d13d f0f5 93bf 2f73 173f bb1e 9e3d
000000f0: 752e 153f f032 7d3f f162 8f3e b640 82bf

l2.bias f4 [8]
0.41942394 -0.2779653 -0.22586693 0.70778066 0.41195983 0.6417044 -0.18723607 0.74728197
00000000: bcbe d63e 7851 8ebe a949 67be 1d31 353f
00000010: 66ec d23e bd46 243f d0ba 3fbe df4d 3f3f

l3.weight f4 [7, 8]
-0.1857211 -0.34241727 0.5001788 -1.5299163 0.28906497 -0.19864641 0.0996542 -0.77898866
0.10590035 -0.20729308 -0.093489766 0.54246783 -0.6686165 -1.41907 -0.036003828 0.6872763
-1.3303205 0.31841186 -1.5008103 0.19268253 0.079019055 0.8123987 0.2880253 -0.15311475
-0.33037204 0.23215708 0.47396854 0.7087496 -0.2891028 -0.13488117 -0.31399494 -1.1999743
-0.67774534 -0.23470426 -0.8339897 0.6383064 -2.0356877 0.7342136 -0.21648821 0.67297584
0.8129742 0.3033689 -0.57651365 -1.3239509 0.31185678 -1.4074122 -0.2105711 0.31148016
0.6180229 0.26759604 0.61444926 -0.42152214 0.21371934 -1.8530028 0.21875843 -1.0944215
00000000: ac2d 3ebe 5151 afbe b80b 003f 4cd4 c3bf
00000010: 5300 943e f769 4bbe 8017 cc3d cd6b 47bf
00000020: 48e2 d83d a344 54be 9077 bfbd 2cdf 0a3f
00000030: 732a 2bbf 16a4 b5bf c078 13bd 57f1 2f3f
00000040: f147 aabf e106 a33e 8d1a c0bf 924e 453e
00000050: bed4 a13d 5cf9 4f3f 0d78 933e 1dca 1cbe
00000060: 8626 a9be 96ba 6d3e 01ac f23e 9d70 353f
00000070: 4805 94be 4a1e 0abe f2c3 a0be c298 99bf
00000080: b880 2dbf 5056 70be 5980 55bf 0c68 233f
00000090: b548 02c0 6cf5 3b3f 16af 5dbe 2548 2c3f
000000a0: 141f 503f 2b53 9b3e 6696 13bf 3977 a9bf
000000b0: b1ab 9f3e 1526 b4bf f39f 57be 547a 9f3e
000000c0: c036 1e3f 5902 893e 8c4c 1d3f c0d1 d7be
000000d0: 3ed9 5a3e 322f edbf 3602 603e 0116 8cbf

l3.bias f4 [7]
-0.52489465 -0.27182946 0.19787014 -0.34059307 -0.35158062 0.42374623 -0.3284862
00000000: 7f5f 06bf 3b2d 8bbe 789e 4a3e 3762 aebe
00000010: 6002 b4be 44f5 d83e 582f a8be
